…
, eval_episodes=1, eval_frequency=1, buffer_size=100000, num_threads=-1, seed=1, runid=999, uniqueid=False, result_path='_logs', reporter_save_frequency=5000, reporter_average_last_k=1, render=False, render_frequency=10, noisy_act=0.0, noisy_obs=0.0, no_deprecate=False, device=device(type='cuda'), dims={'state': (100000, 27), 'action': (100000, 8), 'next_state': (100000, 27), 'reward': 100000, 'terminated': 100000, 'step': 100000})
03-12 09:18-17 INFO     Model: 
ValidationRound(
  (critics): REDQCritics(
    (loss): HuberLoss()
    (base_model): CriticNet(
      (arch): Sequential(
        (0): Linear(in_features=35, out_features=256, bias=True)
        (1): LayerNorm((256,), eps=1e-05, elementwise_affine=False)
        (2): CReLU()
        (3): Linear(in_features=512, out_features=256, bias=True)
        (4): LayerNorm((256,), eps=1e-05, elementwise_affine=False)
        (5): CReLU()
        (6): Linear(in_features=512, out_features=1, bias=True)
      )
    )
    (base_target): CriticNet(
      (arch): Sequential(
        (0): Linear(in_features=35, out_features=256, bias=True)
        (1): LayerNorm((256,), eps=1e-05, elementwise_affine=False)
        (2): CReLU()
        (3): Linear(in_features=512, out_features=256, bias=True)
        (4): LayerNorm((256,), eps=1e-05, elementwise_affine=False)
        (5): CReLU()
        (6): Linear(in_features=512, out_features=1, bias=True)
      )
    )
  )
  (actor): SoftActor(
    (model): ActorNetProbabilistic(
      (arch): Sequential(
        (0): Linear(in_features=27, out_features=256, bias=True)
        (1): LayerNorm((256,), eps=1e-05, elementwise_affine=False)
        (2): CReLU()
        (3): Linear(in_features=512, out_features=256, bias=True)
        (4): LayerNorm((256,), eps=1e-05, elementwise_affine=False)
        (5): CReLU()
        (6): Linear(in_features=512, out_features=16, bias=True)
      )
      (head): SquashedGaussianHead()
    )
  )
)
03-12 09:18-17 CRITICAL EVALUATION	N-steps:       0	Men_Reward:   3590.913	IQM_Reward:   3590.913
03-12 09:18-17 CRITICAL EVALUATION 	 starting state:0.06729314476251602	N-steps:       0	Reward:    359.980	Q-value:     -0.370
03-12 09:18-18 CRITICAL EVALUATION	N-steps:       1	Men_Reward:   3356.231	IQM_Reward:   3356.231
…
